…
project: charge_h012_v1
crtfolders: False
continue: None
using: charge
date: 2017-08-17
input: 11069_00000-00999.h5:11069_01000-01999.h5:11069_02000-02999.h5
model: CNN_v1.cfg
############################################
 
[(0, 124352), (0, 125784), (0, 125878)]
[(124352, 165803), (125784, 167712), (125878, 167837)]
[(165803, 207253), (167712, 209639), (167837, 209796)]
_________________________________________________________________
Layer (type)                 Output Shape              Param #   
=================================================================
conv3d_1 (Conv3D)            (None, 20, 10, 60, 64)    8064      
_________________________________________________________________
batch_normalization_1 (Batch (None, 20, 10, 60, 64)    256       
_________________________________________________________________
activation_1 (Activation)    (None, 20, 10, 60, 64)    0         
_________________________________________________________________
conv3d_2 (Conv3D)            (None, 10, 5, 30, 64)     512064    
_________________________________________________________________
batch_normalization_2 (Batch (None, 10, 5, 30, 64)     256       
_________________________________________________________________
activation_2 (Activation)    (None, 10, 5, 30, 64)     0         
_________________________________________________________________
conv3d_3 (Conv3D)            (None, 5, 3, 15, 128)     1024128   
_________________________________________________________________
batch_normalization_3 (Batch (None, 5, 3, 15, 128)     512       
_________________________________________________________________
activation_3 (Activation)    (None, 5, 3, 15, 128)     0         
_________________________________________________________________
flatten_1 (Flatten)          (None, 28800)             0         
_________________________________________________________________
dropout_1 (Dropout)          (None, 28800)             0         
_________________________________________________________________
dense_1 (Dense)              (None, 512)               14746112  
_________________________________________________________________
dropout_2 (Dropout)          (None, 512)               0         
_________________________________________________________________
dense_2 (Dense)              (None, 256)               131328    
_________________________________________________________________
dense_3 (Dense)              (None, 1)                 257       
=================================================================
Total params: 16,422,977
Trainable params: 16,422,465
Non-trainable params: 512
_________________________________________________________________
None
Epoch 1/30
