
 ############################################
You are running the network script with arguments: 
virtual_len: -1
testing: False
filesizes: False
project: time_h0_v2_6
crtfolders: False
continue: None
using: time
date: 2017-08-26
input: h0
model: CNN_v2.cfg
############################################
 
[(0, 124352)]
[(124352, 165803)]
[(165803, 207253)]
_________________________________________________________________
Layer (type)                 Output Shape              Param #   
=================================================================
conv3d_1 (Conv3D)            (None, 10, 10, 20, 64)    3136      
_________________________________________________________________
batch_normalization_1 (Batch (None, 10, 10, 20, 64)    256       
_________________________________________________________________
activation_1 (Activation)    (None, 10, 10, 20, 64)    0         
_________________________________________________________________
conv3d_2 (Conv3D)            (None, 10, 10, 10, 32)    55328     
_________________________________________________________________
batch_normalization_2 (Batch (None, 10, 10, 10, 32)    128       
_________________________________________________________________
activation_2 (Activation)    (None, 10, 10, 10, 32)    0         
_________________________________________________________________
max_pooling3d_1 (MaxPooling3 (None, 5, 5, 5, 32)       0         
_________________________________________________________________
flatten_1 (Flatten)          (None, 4000)              0         
_________________________________________________________________
dropout_1 (Dropout)          (None, 4000)              0         
_________________________________________________________________
dense_1 (Dense)              (None, 256)               1024256   
_________________________________________________________________
dropout_2 (Dropout)          (None, 256)               0         
_________________________________________________________________
dense_2 (Dense)              (None, 128)               32896     
_________________________________________________________________
dense_3 (Dense)              (None, 1)                 129       
=================================================================
Total params: 1,116,129
Trainable params: 1,115,937
Non-trainable params: 192
_________________________________________________________________
None
Epoch 1/30
