…
You are running the network script with arguments: 
virtual_len: -1
testing: False
filesizes: False
project: time_h012_v3
crtfolders: False
continue: None
using: time
date: 2017-08-26
input: h012
model: CNN_v3.cfg
############################################
 
[(0, 124352), (0, 125784), (0, 125878)]
[(124352, 165803), (125784, 167712), (125878, 167837)]
[(165803, 207253), (167712, 209639), (167837, 209796)]
_________________________________________________________________
Layer (type)                 Output Shape              Param #   
=================================================================
conv3d_1 (Conv3D)            (None, 10, 6, 16, 64)     105664    
_________________________________________________________________
batch_normalization_1 (Batch (None, 10, 6, 16, 64)     256       
_________________________________________________________________
activation_1 (Activation)    (None, 10, 6, 16, 64)     0         
_________________________________________________________________
max_pooling3d_1 (MaxPooling3 (None, 5, 3, 8, 64)       0         
_________________________________________________________________
flatten_1 (Flatten)          (None, 7680)              0         
_________________________________________________________________
dropout_1 (Dropout)          (None, 7680)              0         
_________________________________________________________________
dense_1 (Dense)              (None, 512)               3932672   
_________________________________________________________________
dropout_2 (Dropout)          (None, 512)               0         
_________________________________________________________________
dense_2 (Dense)              (None, 256)               131328    
_________________________________________________________________
dense_3 (Dense)              (None, 1)                 257       
=================================================================
Total params: 4,170,177
Trainable params: 4,170,049
Non-trainable params: 128
_________________________________________________________________
None
Epoch 1/30
Epoch 00000: val_loss improved from inf to 0.44793, saving model to /data/user/jkager/NN_Reco/johannes/updownclassification_3/train_hist/2017-08-26/time_h012_v3/best_val_loss.npy
…
