
 ############################################
You are running the network script with arguments: 
virtual_len: -1
testing: False
filesizes: False
project: time_h0_v2_4
crtfolders: False
continue: None
using: time
date: 2017-08-25
input: h0
model: CNN_v2.cfg
############################################
 
[(0, 124352)]
[(124352, 165803)]
[(165803, 207253)]
_________________________________________________________________
Layer (type)                 Output Shape              Param #   
=================================================================
conv3d_1 (Conv3D)            (None, 10, 10, 20, 64)    3136      
_________________________________________________________________
batch_normalization_1 (Batch (None, 10, 10, 20, 64)    256       
_________________________________________________________________
activation_1 (Activation)    (None, 10, 10, 20, 64)    0         
_________________________________________________________________
conv3d_2 (Conv3D)            (None, 8, 8, 18, 64)      110656    
_________________________________________________________________
batch_normalization_2 (Batch (None, 8, 8, 18, 64)      256       
_________________________________________________________________
activation_2 (Activation)    (None, 8, 8, 18, 64)      0         
_________________________________________________________________
max_pooling3d_1 (MaxPooling3 (None, 4, 4, 9, 64)       0         
_________________________________________________________________
flatten_1 (Flatten)          (None, 9216)              0         
_________________________________________________________________
dropout_1 (Dropout)          (None, 9216)              0         
_________________________________________________________________
dense_1 (Dense)              (None, 512)               4719104   
_________________________________________________________________
dropout_2 (Dropout)          (None, 512)               0         
_________________________________________________________________
dense_2 (Dense)              (None, 256)               131328    
_________________________________________________________________
dense_3 (Dense)              (None, 1)                 257       
=================================================================
Total params: 4,964,993
Trainable params: 4,964,737
Non-trainable params: 256
_________________________________________________________________
None
Epoch 1/30
