…
############################################
 
[(0, 124352), (0, 125784), (0, 125878), (0, 124230), (0, 123420), (0, 119255), (0, 32062)]
[(124352, 165803), (125784, 167712), (125878, 167837), (124230, 165640), (123420, 164560), (119255, 159007), (32062, 42750)]
[(165803, 207253), (167712, 209639), (167837, 209796), (165640, 207049), (164560, 205700), (159007, 198758), (42750, 53437)]
_________________________________________________________________
Layer (type)                 Output Shape              Param #   
=================================================================
conv3d_1 (Conv3D)            (None, 9, 5, 28, 64)      3136      
_________________________________________________________________
batch_normalization_1 (Batch (None, 9, 5, 28, 64)      256       
_________________________________________________________________
activation_1 (Activation)    (None, 9, 5, 28, 64)      0         
_________________________________________________________________
flatten_1 (Flatten)          (None, 80640)             0         
_________________________________________________________________
dropout_1 (Dropout)          (None, 80640)             0         
_________________________________________________________________
dense_1 (Dense)              (None, 128)               10322048  
_________________________________________________________________
dropout_2 (Dropout)          (None, 128)               0         
_________________________________________________________________
dense_2 (Dense)              (None, 64)                8256      
_________________________________________________________________
dense_3 (Dense)              (None, 1)                 65        
=================================================================
Total params: 10,333,761
Trainable params: 10,333,633
Non-trainable params: 128
_________________________________________________________________
None
Epoch 1/30
here
1.90484968478
exiting
