…
/data/user/jkager/NN_Reco/training_data_20x10x60/training_data/11069_01000-01999.h5 [u'charge', u'reco_vals', u'time']
/data/user/jkager/NN_Reco/training_data_20x10x60/training_data/11069_02000-02999.h5 [u'charge', u'reco_vals', u'time']
[(0, 124352), (0, 125784), (0, 125878)]
[(124352, 165803), (125784, 167712), (125878, 167837)]
[(165803, 207253), (167712, 209639), (167837, 209796)]
_________________________________________________________________
Layer (type)                 Output Shape              Param #   
=================================================================
conv3d_1 (Conv3D)            (None, 9, 5, 28, 64)      3136      
_________________________________________________________________
batch_normalization_1 (Batch (None, 9, 5, 28, 64)      256       
_________________________________________________________________
activation_1 (Activation)    (None, 9, 5, 28, 64)      0         
_________________________________________________________________
conv3d_2 (Conv3D)            (None, 5, 3, 14, 64)      110656    
_________________________________________________________________
batch_normalization_2 (Batch (None, 5, 3, 14, 64)      256       
_________________________________________________________________
activation_2 (Activation)    (None, 5, 3, 14, 64)      0         
_________________________________________________________________
flatten_1 (Flatten)          (None, 13440)             0         
_________________________________________________________________
dropout_1 (Dropout)          (None, 13440)             0         
_________________________________________________________________
dense_1 (Dense)              (None, 512)               6881792   
_________________________________________________________________
dropout_2 (Dropout)          (None, 512)               0         
_________________________________________________________________
dense_2 (Dense)              (None, 256)               131328    
_________________________________________________________________
dense_3 (Dense)              (None, 1)                 257       
=================================================================
Total params: 7,127,681
Trainable params: 7,127,425
Non-trainable params: 256
_________________________________________________________________
None
Epoch 1/30
