
 ############################################
You are running the network script with arguments: 
virtual_len: -1
testing: False
filesizes: False
project: charge_h0_red
crtfolders: False
continue: None
using: charge
date: 2017-08-20
input: h0
model: CNN_red.cfg
############################################
 
[(0, 124352)]
[(124352, 165803)]
[(165803, 207253)]
_________________________________________________________________
Layer (type)                 Output Shape              Param #   
=================================================================
conv3d_1 (Conv3D)            (None, 9, 5, 28, 64)      3136      
_________________________________________________________________
batch_normalization_1 (Batch (None, 9, 5, 28, 64)      256       
_________________________________________________________________
activation_1 (Activation)    (None, 9, 5, 28, 64)      0         
_________________________________________________________________
flatten_1 (Flatten)          (None, 80640)             0         
_________________________________________________________________
dropout_1 (Dropout)          (None, 80640)             0         
_________________________________________________________________
dense_1 (Dense)              (None, 128)               10322048  
_________________________________________________________________
dropout_2 (Dropout)          (None, 128)               0         
_________________________________________________________________
dense_2 (Dense)              (None, 64)                8256      
_________________________________________________________________
dense_3 (Dense)              (None, 1)                 65        
=================================================================
Total params: 10,333,761
Trainable params: 10,333,633
Non-trainable params: 128
_________________________________________________________________
None
Epoch 1/30
here
1.90484968478
exiting
here
1.90484968478
exiting
Epoch 00000: val_loss improved from inf to 0.46348, saving model to /data/user/jkager/NN_Reco/johannes/updownclassification_3/train_hist/2017-08-20/charge_h0_red/best_val_loss.npy
…
