…
You are running the network script with arguments: 
virtual_len: -1
testing: False
filesizes: False
project: time_h012_v2_3
crtfolders: False
continue: None
using: time
date: 2017-08-25
input: h012
model: CNN_v2.cfg
############################################
 
[(0, 124352), (0, 125784), (0, 125878)]
[(124352, 165803), (125784, 167712), (125878, 167837)]
[(165803, 207253), (167712, 209639), (167837, 209796)]
_________________________________________________________________
Layer (type)                 Output Shape              Param #   
=================================================================
conv3d_1 (Conv3D)            (None, 9, 5, 28, 64)      3136      
_________________________________________________________________
batch_normalization_1 (Batch (None, 9, 5, 28, 64)      256       
_________________________________________________________________
activation_1 (Activation)    (None, 9, 5, 28, 64)      0         
_________________________________________________________________
conv3d_2 (Conv3D)            (None, 5, 3, 14, 64)      110656    
_________________________________________________________________
batch_normalization_2 (Batch (None, 5, 3, 14, 64)      256       
_________________________________________________________________
activation_2 (Activation)    (None, 5, 3, 14, 64)      0         
_________________________________________________________________
max_pooling3d_1 (MaxPooling3 (None, 5, 3, 7, 64)       0         
_________________________________________________________________
flatten_1 (Flatten)          (None, 6720)              0         
_________________________________________________________________
dropout_1 (Dropout)          (None, 6720)              0         
_________________________________________________________________
dense_1 (Dense)              (None, 512)               3441152   
_________________________________________________________________
dropout_2 (Dropout)          (None, 512)               0         
_________________________________________________________________
dense_2 (Dense)              (None, 256)               131328    
_________________________________________________________________
dense_3 (Dense)              (None, 1)                 257       
=================================================================
Total params: 3,687,041
Trainable params: 3,686,785
Non-trainable params: 256
_________________________________________________________________
None
Epoch 1/30
